…
2018-03-13 12:36:40.746654: I tensorflow/core/common_runtime/gpu/gpu_device.cc:1120] Creating TensorFlow device (/device:GPU:0) -> (device: 0, name: GeForce GTX 1080, pci bus id: 0000:02:00.0, compute capability: 6.1)
/data/Experiments/SOFTMAX/features /data/Experiments/SOFTMAX/targets
--->>> 2018-03-13 12:36:43.188024 Formatting Training Dataset
--->>> 2018-03-13 12:36:43.188229 
--->>> 2018-03-13 12:36:43.188241 ---> Testing Model <---
_________________________________________________________________
Layer (type)                 Output Shape              Param #   
=================================================================
time_distributed_1 (TimeDist (None, 512, 72, 10, 128)  19328     
_________________________________________________________________
time_distributed_2 (TimeDist (None, 512, 72, 10, 128)  512       
_________________________________________________________________
time_distributed_3 (TimeDist (None, 512, 72, 10, 64)   204864    
_________________________________________________________________
time_distributed_4 (TimeDist (None, 512, 72, 10, 64)   256       
_________________________________________________________________
time_distributed_5 (TimeDist (None, 512, 72, 10, 64)   36928     
_________________________________________________________________
time_distributed_6 (TimeDist (None, 512, 72, 10, 64)   256       
_________________________________________________________________
time_distributed_7 (TimeDist (None, 512, 72, 10, 8)    107528    
_________________________________________________________________
time_distributed_8 (TimeDist (None, 512, 72, 10, 8)    32        
_________________________________________________________________
time_distributed_9 (TimeDist (None, 512, 72, 10, 1)    9         
_________________________________________________________________
time_distributed_10 (TimeDis (None, 512, 72, 10, 1)    4         
_________________________________________________________________
time_distributed_11 (TimeDis (None, 512, 72, 10)       0         
_________________________________________________________________
time_distributed_12 (TimeDis (None, 512, 720)          0         
_________________________________________________________________
time_distributed_13 (TimeDis (None, 512, 73)           52633     
_________________________________________________________________
lstm_1 (LSTM)                (None, 512, 73)           42924     
_________________________________________________________________
time_distributed_14 (TimeDis (None, 512, 73)           5402      
_________________________________________________________________
activation_1 (Activation)    (None, 512, 73)           0         
=================================================================
Total params: 470,676
Trainable params: 470,146
Non-trainable params: 530
_________________________________________________________________
None
predicting on:['AClassicEducation_NightOwl']
Size of song in blocks/samples:28/14336
predicting on:['Auctioneer_OurFutureFaces']
Size of song in blocks/samples:34/17408
predicting on:['CelestialShore_DieForUs']
…
